model/a.pth (torch, 747327 bytes, 15 tensors)

conv1.weight f4 [64, 1, 9, 9]
0.066531464 -0.049112864 -0.078367 -0.0052067963 -0.108400464 -0.044182092 0.021559253 0.027896477
0.07169576 -0.034424216 -0.018724311 -0.048084136 -0.027086908 -0.025008827 -0.1186773 -0.0012785983
0.018572746 -0.112489335 -0.05456543 -0.07294214 -0.033923525 -0.025995525 -0.032878764 0.012915846
-0.05504088 0.1031411 -0.07248993 0.10440301 -0.065008916 0.10252918 -0.009699356 0.057700254
0.14078388 -0.000308401 0.067981414 -0.059803497 0.09535482 0.029212015 0.066378735 0.066888146
0.036425576 0.057758685 0.07184182 0.07042137 0.04907036 0.089517355 0.029522363 -0.071741894
0.06522758 -0.04643741 0.09637099 -0.0061865626 0.00763915 -0.048666682 -0.0041159866 -0.08552641
0.011688494 0.054261997 0.1323748 -0.025454031 0.03489563 -0.030351311 -0.064234234 -0.07870678
-0.097976364 0.0011309764 -0.017413193 0.03652238 0.026599005 -0.004652607 0.055818282 -0.064781584
-0.08950203 0.094653144 0.08121223 0.1045631 0.05957686 -0.029349059 -0.0049892785 -0.02627324
0.002028999 0.08569493 -0.020534735 -0.06688055 0.09446082 0.04954635 -0.08216254 0.06877576
0.04667196 -0.017762719 -0.09294124 -0.016272098 -0.12692699 0.11250069 -0.0018029418 0.014413757
-0.0729325 0.035075326 -0.00855378 0.05860387 0.02968209 -0.024138102 0.13934696 -0.02153784
-0.04056238 0.10098821 -0.037869353 -0.073144026 0.03764068 0.01660545 0.10952841 -0.017589632
-0.08530624 0.104715556 0.1407017 -0.0022948692 0.015254921 -0.03177235 0.051422928 -0.08417269
-0.041677713 -0.122156195 -0.06917974 -0.056796547 -0.04971305 0.027428268 -0.11675148 -0.032226585
-0.14818268 0.00279247 -0.12056071 -0.13614497 -0.027760213 -0.04117394 0.061695866 0.033938736
-0.013623169 -0.05384166 0.114519134 0.024882393 -0.02514049 -0.059406113 -0.024657287 -0.01739216
0.15823428 -0.060171716 -0.06869156 -0.047364093 -0.100901775 0.095751055 0.106635116 0.0369916
0.011400546 -0.052724455 -0.07606553 -0.06904301 0.11181399 0.06990225 -0.007916458 -0.10122097
0.069875665 -0.11289513 -0.12869157 0.05993144 0.029916398 -0.0036018346 -0.008752838 0.0001627702
0.08874093 0.016681483 0.07903211 0.07272198 0.02254109 0.08263438 0.035973754 -0.0795025
-0.07096871 -0.032231368 0.042161375 -0.08924422 -0.004614119 -0.042394694 -0.019925041 -0.047970645
0.05012053 -0.06227709 0.028937038 -0.04767644 0.02760791 -0.036466196 0.07177196 -0.052712843
-0.037739433 -0.024026237 -0.009930668 -0.004760232 -0.075856775 -0.06088008 -0.031433947 -0.061385766
-0.06081407 -0.06442062 0.025758259 -0.06371065 0.052677806 0.07498696 -0.08269105 -0.066487566
-0.08154901 -0.024032786 0.06102758 0.14912695 0.02522024 0.07267189 0.12620018 0.07515645
-0.0032673217 0.024331048 -0.038978074 -0.058301542 0.025183987 -0.047666244 -0.057471566 -0.0115705775
0.06472167 -0.110696174 0.09900644 0.08770349 -0.021514388 0.07103452 0.009179119 -0.051918518
0.015288685 -0.039434265 -0.008848265 0.01632535 -0.017004527 -0.0032471358 0.13219394 -0.049267367
0.010697988 0.024581008 0.008528899 0.013380278 -0.03323921 -0.04063923 -0.02976107 0.04116169
0.08351809 -0.103971966 -0.024039827 -0.016341506 -0.02917995 0.02043729 -0.00956701 -0.1178087
00000000: a641 883d 922a 49bd e17e a0bd c69d aabb
00000010: 1001 debd 48f8 34bd 089d b03c 2787 e43c
00000020: 3ad5 923d 6800 0dbd ba63 99bc dff3 44bd
00000030: 5de5 ddbc 50df ccbc 160d f3bd a496 a7ba
00000040: df25 983c cf60 e6bd 0080 5fbd b062 95bd
00000050: 65f3 0abd 91f4 d4bc e2ab 06bd fc9c 533c
00000060: 8c72 61bd a43b d33d 9a75 94bd 3fd1 d53d
00000070: 6523 85bd d2fa d13d 0cea 1ebc 1a57 6c3d
00000080: a629 103e e2b0 a1b9 d739 8b3d 83f4 74bd
00000090: 6349 c33d 094e ef3c 93f1 873d a7fc 883d
000000a0: fc32 153d 5f94 6c3d ce21 933d 1439 903d
000000b0: 00fe 483d e054 b73d e2d8 f13c 6aed 92bd
000000c0: 0a96 853d 2735 3ebd 275e c53d a6b8 cabb
000000d0: d651 fa3b b756 47bd 66df 86bb 7828 afbd
000000e0: 1981 3f3c d441 5e3d 428d 073e f984 d0bc
000000f0: b8ee 0e3d 50a3 f8bc 3d8d 83bd 0531 a1bd
00000100: d5a7 c8bd 453d 943a 1da6 8ebc 7e98 153d
00000110: 28e6 d93c e574 98bb b6a1 643d 35ac 84bd
00000120: d74c b7bd 82d9 c13d 9952 a63d 2e25 d63d
00000130: de06 743d 706d f0bc 1a7d a3bb fa3a d7bc
00000140: f4f8 043b d380 af3d 7638 a8bc abf8 88bd
00000150: ad74 c13d 1df1 4a3d d544 a8bd 4eda 8c3d
00000160: 192b 3f3d 1f83 91bc fa57 bebd 104d 85bc
00000170: 26f9 01be c366 e63d b050 ecba ae27 6c3c
00000180: a25d 95bd 25ab 0f3d 2725 0cbc 9d0a 703d
00000190: db27 f33c 45bd c5bc f8b0 0e3e 2070 b0bc
000001a0: bd24 26bd e8d2 ce3d e51c 1bbd 89cc 95bd
000001b0: 1d2d 1a3d 2708 883c 6e50 e03d 2218 90bc
000001c0: 0ab5 aebd 1c75 d63d 1b14 103e 8465 16bb
000001d0: c7ef 793c b923 02bd d9a0 523d bb62 acbd
000001e0: 40b6 2abd 072d fabd 1cae 8dbd 7fa3 68bd
000001f0: e99f 4bbd 3fb1 e03c 661b efbd 0600 04bd
00000200: 33bd 17be df01 373b 89e8 f6bd 9669 0bbe
00000210: 6369 e3bc 01a6 28bd ceb4 7c3d 5803 0b3d
00000220: b633 5fbc 1389 5cbd 0289 ea3d 29d6 cb3c
00000230: 6ef3 cdbc d353 73bd 14fe c9bc 017a 8ebc
00000240: 2b08 223e 9e76 76bd 29ae 8cbd da00 42bd
00000250: 97a5 cebd 2119 c43d 8363 da3d 8184 173d
00000260: 5bc9 3a3c 99f5 57bd 3fc8 9bbd 6c66 8dbd
00000270: bcfe e43d e928 8f3d 08b4 01bc f14c cfbd
00000280: f91a 8f3d 9035 e7bd b9c7 03be ab7a 753d
00000290: 3c13 f53c c20c 6cbb 1068 0fbc 4bad 2a39
000002a0: cebd b53d 9ba7 883c 96db a13d 43ef 943d
000002b0: 18a8 b83c 373c a93d 3759 133d 35d2 a2bd
000002c0: 0b58 91bd 0a05 04bd 68b1 2c3d acc5 b6bd
000002d0: 0932 97bb 0fa6 2dbd d739 a3bc de7c 44bd
000002e0: 2f4b 4d3d 4316 7fbd 5e0d ed3c 5f48 43bd
000002f0: fc29 e23c 945d 15bd 2dfd 923d 6ce9 57bd
00000300: aa94 1abd acd2 c4bc 3eb4 22bc b8fb 9bbb
00000310: cc5a 9bbd 645d 79bd e2c0 00bd a46f 7bbd
00000320: 2d18 79bd f5ee 83bd fc02 d33c bb7a 82bd
00000330: afc4 573d c392 993d ed59 a9bd a22a 88bd
00000340: 2b03 a7bd 68e0 c4bc 0ef8 793d bcb4 183e
00000350: ad9a ce3c 00d5 943d 9f3a 013e a0eb 993d
00000360: 9020 56bb e851 c73c 79a7 1fbd 99cd 6ebd
00000370: a64e ce3c ae3d 43bd 4e67 6bbd 8592 3dbc
00000380: cb8c 843d adb4 e2bd e3c3 ca3d e39d b33d
00000390: f13e b0bc 8c7a 913d 0464 163c 83a8 54bd
000003a0: 657d 7a3c d385 21bd 50f8 10bc bebc 853c
000003b0: 144d 8bbc e6cd 54bb d95d 073e 94cc 49bd
000003c0: 9d46 2f3c 1c5e c93c ccbc 0b3c f438 5b3c
000003d0: d625 08bd 5275 26bd 7dcd f3bc 2999 283d
000003e0: 880b ab3d 41ef d4bd 2cef c4bc 9fde 85bc
000003f0: ca0a efbc 1b6c a73c f3be 1cbc b045 f1bd

conv1.bias f4 [64]
0.076037794 0.106375806 -0.015445092 0.110592365 -0.09588124 0.02325703 0.042872377 0.009944136
0.07872261 -0.031579405 0.12847964 -0.06311179 0.07598937 -0.06438095 -0.019534033 -0.018847419
0.045384392 -0.07472044 0.071900785 -0.057264145 0.019929232 -0.013902336 0.06733562 0.109766334
0.08183096 -0.045023635 0.074416794 0.07698275 0.121597 -0.055996053 0.059981924 0.11501762
-0.024573617 -0.02596789 0.047064137 -0.096135706 -0.05899216 0.05614059 0.12125017 0.037684873
-0.06736956 0.016326092 0.078556076 -0.020461004 -0.016530091 0.1259138 0.09223913 0.078283094
-0.021840107 -0.035771713 0.09495208 -0.06773893 0.07467777 0.08915344 0.10308296 -0.05707726
0.03188946 -0.03739863 0.04236131 0.08911298 -0.073832825 0.14705354 0.026495473 0.03188797
00000000: b4b9 9b3d 8fdb d93d 690d 7dbc 407e e23d
00000010: 625d c4bd 8785 be3c f29a 2f3d bbec 223c
00000020: 5239 a13d 6859 01bd 2b90 033e c140 81bd
00000030: 51a0 9b3d 29da 83bd d605 a0bc e765 9abc
00000040: fce4 393d 0807 99bd b840 933d cf8d 6abd
00000050: a142 a33c a0c6 63bc 42e7 893d 2ccd e03d
00000060: fe96 a73d b46a 38bd d567 983d 22a9 9d3d
00000070: d907 f93d 1e5c 65bd 9baf 753d 5c8e eb3d
00000080: 9c4e c9bc 9dba d4bc 53c6 403d cce2 c4bd
00000090: c3a1 71bd adf3 653d 0252 f83d 745b 1a3d
000000a0: 0df9 89bd 4cbe 853c 02e2 a03d d69d a7bc
000000b0: 1d6a 87bc 8cef 003e dee7 bc3d e352 a03d
000000c0: 06ea b2bc 5c85 12bd 3c76 c23d b5ba 8abd
000000d0: a9f0 983d 1496 b63d 291d d33d d8c9 69bd
000000e0: 869e 023d 4e2f 19bd 0e83 2d3d de80 b63d
000000f0: aa35 97bd 3495 163e 090d d93c f69c 023d

conv21.weight f4 [32, 64, 5, 5]
0.012407926 0.03260313 0.035699096 0.04736153 0.0387347 0.010080404 0.047212616 0.04692977
0.0443922 0.009930419 -0.00085960375 0.029342474 0.022000197 0.03868966 0.010895788 0.014439041
0.0282645 0.03671911 0.04280178 0.0003574715 -0.05108704 -0.01417552 -0.023536352 -0.013636837
-0.010288855 -0.008762282 0.0016700163 -0.01978351 0.0124142105 -0.004764367 -0.041666787 -0.050747853
-0.03855946 0.024856387 0.0007958767 -0.03351954 -0.006480965 0.02407331 0.021367436 -0.02782457
-0.011507374 -0.02426116 -0.030719494 0.0036172315 -0.05441618 -0.00947637 -0.024962323 -0.0039142654
-0.0010214342 -0.030531332 0.027951514 -0.0071510095 -0.013365357 0.027929315 -0.0008064919 0.038594034
-0.0039449683 0.0066449456 -0.0040957453 0.010970513 0.032006577 0.0353572 -0.010408736 -0.0067853746
0.006678953 -0.0031812883 -0.013367521 -0.009044366 -0.0015608517 0.005734518 -0.00441304 -0.006253527
-0.021885386 0.010688688 0.02264798 -0.0025456345 -0.0151994135 0.013395244 -0.031642813 -0.019310392
-0.009453176 0.011229616 -0.027388029 -0.0010340419 -0.019979576 -0.0052947993 0.012913489 -0.020289121
-0.017542943 -0.03776653 -0.022541692 0.019981625 0.002556399 0.010130561 -0.02771157 -0.0016637885
0.009824534 0.019071346 0.00494614 -0.008253201 0.028260542 0.020785395 -0.004706942 0.016380336
0.008131785 -0.009345816 -0.0035628437 -0.00859089 0.033747945 0.00065342896 0.024287889 0.027032686
-0.0076454906 0.038728718 0.0070443484 0.018214941 0.030691497 0.02925618 0.023002207 -0.0039069233
0.023140186 -0.006799523 0.010637684 -0.0089409975 0.008917309 -0.035348 -0.037047192 -0.01716795
0.015714992 0.0041305195 -0.024761524 -0.0125890095 0.0101453215 -0.008439109 -0.004298688 0.028557498
0.008095189 0.038988024 0.017986538 0.009839487 0.0007820751 0.021610893 0.032635417 0.04201947
0.052800085 -0.05442339 -0.035143096 -0.026356159 0.04119824 0.044735774 -0.012311775 -0.005612874
-0.0149694 -0.024605686 -0.020594949 0.009238555 0.0033477598 -0.0072332444 -0.02665913 0.0035030288
0.006264358 -0.019168202 -0.024331622 0.021541798 0.008550455 -0.026081124 0.010526788 -0.016990956
0.0014483742 -0.0082810195 0.0072025834 -0.0099559715 0.0058351965 -0.023344746 -0.0072692293 -0.015693603
-0.0040664882 0.018122278 0.0061413236 -0.01988613 0.033824887 0.004823322 0.00853868 0.0360053
0.0016171114 0.010495144 0.03754414 0.012889926 0.004210392 -0.012923526 0.03225604 0.038645055
0.0055203903 0.047558308 -0.01081731 0.010322624 0.027736032 0.0044040694 0.034833018 -0.00233198
0.0022240411 0.019871699 0.017507788 -0.012798542 0.016351314 0.0035889216 -0.01789253 0.014580947
0.021595003 -0.011558891 -0.007626894 -0.023609433 0.008139223 0.02065631 0.021067597 -0.029373107
-0.019598898 -0.0001640534 -0.008693085 0.008270528 -0.0026585916 -0.014672381 0.008188971 0.006091782
0.01216833 0.019697836 0.00017575253 -0.02537298 -0.011826313 -0.022935364 -0.019469894 0.012391647
0.012459128 0.007802558 -0.0011379183 -0.0052665705 -0.02154341 0.022404704 0.009630289 0.01717476
0.009235542 0.019282755 0.02406353 0.0006130686 0.009693418 0.011282165 -0.016073335 0.024138475
-0.022449687 0.0066342624 -0.005253638 0.028848898 0.07268043 -0.021271246 -0.089752354 -0.01840175
00000000: 9d4a 4b3c dc8a 053d 3739 123d 2afe 413d
00000010: 47a8 1e3d 4728 253c 0462 413d 6e39 403d
00000020: 98d4 353d 32b3 223c 0857 61ba a15f f03c
00000030: c239 b43c 0d79 1e3d 3f84 323c ba91 6c3c
00000040: f48a e73c c766 163d eb50 2f3d 036b bb39
00000050: a540 51bd 7140 68bc 4fcf c0bc 0a6d 5fbc
00000060: 9692 28bc ad8f 0fbc 73e4 da3a 0711 a2bc
00000070: f964 4b3c 681e 9cbb cbaa 2abd fbdc 4fbd
00000080: 86f0 1dbd 9f9f cb3c 62a2 503a c94b 09bd
00000090: 465e d4bb 6435 c53c c30a af3c 5af0 e3bc
000000a0: 6d89 3cbc 57bf c6bc 73a7 fbbc 130f 6d3b
000000b0: 80e3 5ebd c742 1bbc c97d ccbc 3d43 80bb
000000c0: a5e1 85ba d81c fabc 93fa e43c 0453 eabb
000000d0: 5ffa 5abc 05cc e43c c16a 53ba c714 1e3d
000000e0: cb44 81bb d8bd d93b 9a35 86bb abbd 333c
000000f0: 5419 033d b6d2 103d 6789 2abc d957 debb
00000100: 1edb da3b 297d 50bb 7203 5bbc d22e 14bc
00000110: 7e95 ccba a0e8 bb3b 439b 90bb 63ea ccbb
00000120: fb48 b3bc 9b1f 2f3c 4288 b93c a9d4 26bb
00000130: f606 79bc ba77 5b3c e59b 01bd d430 9ebc
00000140: 7ee1 1abc 6cfc 373c dc5c e0bc b088 87ba
00000150: 35ac a3bc ff7f adbb 1993 533c 5f35 a6bc
00000160: 38b6 8fbc 14b1 1abd 5ba9 b8bc 81b0 a33c
00000170: 4289 273b a7fa 253c 6003 e3bc 7a13 daba
00000180: 15f7 203c 833b 9c3c 3b13 a23b 6f38 07bc
00000190: a782 e73c 2246 aa3c b13c 9abb 0e30 863c
000001a0: 2e3b 053c 321f 19bc 997e 69bb cec0 0cbc
000001b0: 493b 0a3d e04a 2b3a 65f7 c63c a773 dd3c
000001c0: 0687 fabb 01a2 1e3d 47d4 e63b 8037 953c
000001d0: bc6c fb3c a8aa ef3c 206f bc3c a605 80bb
000001e0: 7d90 bd3c 88ce debb ae49 2e3c 437d 12bc
000001f0: e819 123c 10c9 10bd ccbe 17bd cda3 8cbc
00000200: babc 803c 4f59 873b aed8 cabc 2242 4ebc
00000210: 9038 263c 3044 0abc 02dc 8cbb 6af1 e93c
00000220: afa1 043c e8b1 1f3d 8158 933c cd35 213c
00000230: 2c04 4d3a 5409 b13c b7ac 053d 9c1c 2c3d
00000240: e744 583d 10eb 5ebd 35f2 0fbd dfe8 d7bc
00000250: 7cbf 283d dc3c 373d 54b7 49bc 33ec b7bb
00000260: 3742 75bc dd91 c9bc bdb6 a8bc 4f5d 173c
00000270: 1766 5b3b da04 edbb 3f64 dabc 1293 653b
00000280: 3e45 cd3b a206 9dbc 1c53 c7bc 6d78 b03c
00000290: 3517 0c3c 15a8 d5bc 8d78 2c3c 9e30 8bbc
000002a0: 60d7 bd3a 1dad 07bc a603 ec3b 5f1e 23bc
000002b0: 2d35 bf3b 7b3d bfbc b732 eebb df8f 80bc
000002c0: 2d40 85bb 2c75 943c 283d c93b 3de8 a2bc
000002d0: f78b 0a3d f50c 9e3b d2e5 0b3c 4b7a 133d
000002e0: 41f5 d33a d3f3 2b3c e2c7 193d 4530 533c
000002f0: 54f7 893b 32bd 53bc e91e 043d 474a 1e3d
00000300: 64e4 b43b 80cc 423d 163b 31bc 3920 293c
00000310: ad36 e33c 0350 903b 11ad 0e3d 22d4 18bb
00000320: 38c1 113b f9c9 a23c 7e6c 8f3c fab0 51bc
00000330: 31f3 853c 1d34 6b3b 5b93 92bc ede4 6e3c
00000340: 01e8 b03c 8161 3dbc 06eb f9bb 9268 c1bc
00000350: 605a 053c 6c37 a93c f495 ac3c df9f f0bc
00000360: de8d a0bc c005 2cb9 716d 0ebc 1c81 073c
00000370: c43b 2ebb 6d64 70bc 092b 063c 929d c73b
00000380: ad5d 473c 5b5d a13c 364a 3839 ffda cfbc
00000390: 27c3 41bc f2e2 bbbc 547f 9fbc 5606 4b3c
000003a0: 5f21 4c3c 9aac ff3b 3426 95ba 3293 acbb
000003b0: ce7b b0bc 128a b73c 5cc8 1d3c 15b2 8c3c
000003c0: ac50 173c def6 9d3c e120 c53c 56b6 203a
000003d0: 24d1 1e3c d4d8 383c 3aac 83bc 0dbe c53c
000003e0: 68e8 b7bc 3a64 d93b b626 acbb 8654 ec3c
000003f0: 7ad9 943d 0941 aebc 15d0 b7bd 44bf 96bc

conv21.bias f4 [32]
0.007226156 0.012408953 0.06010135 0.047392316 0.0004866955 -0.010373046 0.041967522 -0.010304022
0.009654593 0.04129156 0.0012508439 0.024299502 0.05661528 0.009451396 -0.015064027 0.009485416
-0.010126002 -0.002539063 -0.008011997 0.04389122 0.052900147 -0.01605952 0.033870727 0.001654338
0.04319022 0.04896145 -0.009983437 0.021333117 0.023125662 0.038819745 -0.0011988909 0.008534706
00000000: 64c9 ec3b ec4e 4b3c d52c 763d 721e 423d
00000010: 2a2b ff39 b5f3 29bc 23e6 2b3d 33d2 28bc
00000020: 4c2e 1e3c 5721 293d 5bf3 a33a c00f c73c
00000030: 6de5 673d 07da 1a3c 1ccf 76bc b868 1b3c
00000040: 88e7 25bc 6966 26bb c044 03bc 48c7 333d
00000050: d3ad 583d 418f 83bc 08bc 0a3d 5fd6 d83a
00000060: 3ae8 303d cd8b 483d 9291 23bc cac2 ae3c
00000070: 0772 bd3c 7401 1f3d 1a24 9dba 27d5 0b3c

conv22.weight f4 [32, 32, 5, 5]
-0.0008088263 0.007087028 0.014810118 0.0010069368 -0.010004051 0.03327196 0.037404027 0.003408789
0.022771917 0.014077241 -0.028045436 0.034203902 0.016885037 -0.019187087 0.022109948 -0.031679936
-0.0022109624 0.016430268 -0.0050680144 0.031124434 -0.009587522 -0.0114690615 0.025212944 -0.028380215
0.016022384 -0.023327343 -0.011868315 -0.0025337727 0.03916864 0.031694453 -0.045521237 -0.025140524
0.023953196 -0.018433645 0.027455594 0.0050333138 0.016304495 -0.009710352 0.018958949 -0.018141842
-0.0322346 -0.0053619086 -0.006047223 -0.011539861 -0.024363056 0.0034423468 0.03256436 0.031812605
-0.0020500892 -0.013813291 0.03418222 -0.02715389 -0.009681625 -0.016121292 0.0053470866 0.03560609
0.01604003 -0.03543783 -0.02970909 0.019742263 -0.019942435 -0.0030089223 -0.018071238 -0.011183178
0.013980365 0.021693649 0.023485107 -0.036934186 -0.009527745 -0.022081004 0.029449932 -0.01752685
0.006303026 -0.027378159 -0.030458573 -0.0029534989 -0.032887712 -0.0046437136 0.02973988 -0.02820965
0.026436962 -0.0129125295 0.018784735 -0.00087759626 -0.013683556 0.019753048 -0.033734683 0.0017959535
0.024059992 0.0076688835 0.024466036 -0.03163254 -0.041404836 0.025416955 -0.015725903 -0.027761854
-0.027094448 -0.0039309114 0.022160228 -0.007754275 -0.00725032 -0.0100658415 -0.02336573 -0.010865171
-0.008149103 -0.021057397 0.0012854066 -0.010621859 -0.01445923 -0.024547411 0.019596897 0.0065791323
0.0030837543 0.030496938 -0.029799115 0.038135726 -0.0063765715 -0.00529691 0.016644703 0.0065741064
0.025703404 0.0016368295 -0.0014041649 -0.0341183 0.017557323 -0.011565492 -0.024342522 0.0050472463
0.033531345 -0.023830673 -0.0045772316 0.019496037 0.020093732 0.027459398 0.0042939857 0.027974742
0.022120178 -0.015507075 0.026561275 0.02403088 -0.020449359 -0.019396903 -0.0055674664 0.03704538
0.03257561 -0.033702526 -0.022612762 0.029636342 0.0080074165 0.0047437153 0.00029378693 0.017906241
-0.011423324 -0.0030056157 0.033771317 0.0031188976 -0.030463163 -0.047917206 0.013826432 -0.023872666
0.01995686 -0.018228356 -0.0149661 0.0069410307 0.0038658257 -0.036132917 0.024029387 0.005370517
0.0012255801 -0.015420412 -0.01563303 0.016786484 0.03723662 -0.016632969 0.0141154155 -0.027238695
0.017516427 0.00823217 -0.012099276 -0.026280483 0.031199487 0.015540083 0.001796013 -0.02844526
-0.02503596 -0.008457028 0.040805552 0.017336676 -0.014638156 -0.027354173 -0.014359686 0.025569957
0.027711771 -0.008860613 -0.019545516 -0.014447625 -0.0011964105 -0.009429692 -0.016252393 -0.0031605784
0.0034445024 -0.020790404 -0.0148243 0.01711165 -0.015430182 0.02745839 0.03351142 -0.021494009
0.006575458 0.028524885 -0.029722996 0.03567981 -0.0069182413 0.023267014 -0.007088127 0.005025436
0.012426861 -0.02087173 -0.006916558 0.0004691756 -0.033876467 0.026478123 0.031554908 0.012727022
0.02539698 0.010477606 -0.02587831 -0.022084074 -0.039589293 -0.019328324 -0.0025814786 -0.041009165
-0.003617418 0.015248554 0.013236097 0.01837753 -0.015886083 -0.016031532 -0.021778397 0.021388113
-0.006129261 -0.036312167 0.0033583029 0.02464133 0.04019858 -0.04119962 0.026535608 0.0023078665
-0.0020378707 -0.013354381 -0.027528318 0.021333225 0.024136415 0.001095317 0.038406663 0.0003079398
00000000: 6a07 54ba 4d3a e83b 23a6 723c 31fb 833a
00000010: 08e8 23bc 2e48 083d f734 193d fd65 5f3b
00000020: 2c8c ba3c 3aa4 663c 8bbf e5bc 6419 0c3d
00000030: 7d52 8a3c 3d2e 9dbc ec1f b53c d2c2 01bd
00000040: cbe5 10bb c598 863c 9611 a6bb abf8 fe3c
00000050: fb14 1dbc bbe8 3bbc 608b ce3c a07d e8bc
00000060: 6041 833c fc18 bfbc 5273 42bc a70d 26bb
00000070: 4c6f 203d 0bd2 013d 7a74 3abd 80f3 cdbc
00000080: 7e39 c43c 2802 97bc 8eea e03c 7fee a43b
00000090: 0191 853c 2b18 1fbc cc4f 9b3c 339e 94bc
000000a0: 6e08 04bd f3b2 afbb c927 c6bb af11 3dbc
000000b0: 0895 c7bc ff98 613b 3562 053d ef4d 023d
000000c0: ca5a 06bb 2451 62bc a802 0c3d d671 debc
000000d0: ae9f 1ebc cd10 84bc 9d36 af3b b1d7 113d
000000e0: 6266 833c 4227 11bd 7a60 f3bc 87ba a13c
000000f0: 515e a3bc 5731 45bb 220a 94bc a639 37bc
00000100: e70d 653c e1b6 b13c d763 c03c 4d48 17bd
00000110: 421a 1cbc 39e3 b4bc fc40 f13c 7894 8fbc
00000120: 9d89 ce3b 2948 e0bc 4284 f9bc 7d8f 41bb
00000130: 44b5 06bd 4b2a 98bb 0ca1 f33c ed17 e7bc
00000140: 5492 d83c 138f 53bc 72e2 993c 7d0e 66ba
00000150: fe30 60bc 25d1 a13c 612d 0abd 3366 eb3a
00000160: 7619 c53c 424b fb3b ff6c c83c 1f91 01bd
00000170: 1e98 29bd 3837 d03c 9cd3 80bc d46c e3bc
00000180: 2df5 ddbc e0ce 80bb 5e89 b53c 9317 febb
00000190: 1894 edbb 33eb 24bc 7d69 bfbc d503 32bc
000001a0: d183 05bc 9080 acbc 177b a83a 4e07 2ebc
000001b0: 68e6 6cbc a717 c9bc ac89 a03c c395 d73b
000001c0: d018 4a3b b7d4 f93c 461d f4bc 3534 1c3d
000001d0: 8ff2 d0bb b491 adbb 795a 883c 9a6b d73b
000001e0: f28f d23c e28a d63a f50b b8ba a1bf 0bbd
000001f0: 60d4 8f3c 307d 3dbc f869 c7bc 5f63 a53b
00000200: 2a58 093d 8b38 c3bc 9afc 95bb 27b6 9f3c
00000210: 9c9b a43c 88f2 e03c 90b4 8c3b 492b e53c
00000220: 6035 b53c 6311 7ebc 0897 d93c 68dc c43c
00000230: 6a85 a7bc 41e6 9ebc 4b6f b6bb e5bc 173d
00000240: 016e 053d a90b 0abd 663e b9bc eac7 f23c
00000250: 8a31 033c 2b71 9b3b 6a07 9a39 1cb0 923c
00000260: e528 3bbc ddf9 44bb cb53 0a3d 6b66 4c3b
00000270: e28d f9bc d544 44bd 4288 623c 9c90 c3bc
00000280: 927c a33c a253 95bc 6034 75bc 9671 e33b
00000290: cb59 7d3b 1c00 14bd 47d9 c43c 29fb af3b
000002a0: a5a3 a03a e5a5 7cbc d710 80bc cf83 893c
000002b0: 6d85 183d dd41 88bc 5844 673c af23 dfbc
000002c0: 9c7e 8f3c 39e0 063c 0b3c 46bc 2b4a d7bc
000002d0: 1196 ff3c d59b 7e3c 3268 eb3a 0906 e9bc
000002e0: 3718 cdbc 598f 0abc b923 273d a505 8e3c
000002f0: e0d4 6fbc dc15 e0bc e344 6bbc 1678 d13c
00000300: cc03 e33c 1b2c 11bc eb1d a0bc bbb5 6cbc
00000310: e0d0 9cba ff7e 1abc bd23 85bc b521 4fbb
00000320: 29bd 613b a350 aabc 9fe1 72bc bb2d 8c3c
00000330: e0ce 7cbc 6bf0 e03c 4543 093d 3414 b0bc
00000340: f176 d73b 05ad e93c a47d f3bc fe24 123d
00000350: 6ab2 e2bb 779a be3c 8543 e8bb 6aac a43b
00000360: 089a 4b3c 31fb aabc 4ba4 e2bb affb f539
00000370: 0dc2 0abd a6e8 d83c b83f 013d 0085 503c
00000380: 540d d03c 44aa 2b3c c0fe d3bc a9e9 b4bc
00000390: 6228 22bd 6f56 9ebc 062e 29bb 3af9 27bd
000003a0: 3412 6dbb 12d5 793c 37dc 583c 798c 963c
000003b0: 8823 82bc 8f54 83bc 9c68 b2bc 2036 af3c
000003c0: f8d7 c8bb 11bc 14bd f916 5c3b 9ddc c93c
000003d0: 44a7 243d efc0 28bd 3461 d93c 933f 173b
000003e0: cc8d 05bb 55cc 5abc 1183 e1bc 04c3 ae3c
000003f0: bbb9 c53c bd90 8f3a 4e50 1d3d fb72 a139

conv22.bias f4 [32]
0.014049859 -0.019137997 -0.0018024375 0.021844275 -0.025875242 0.072761126 -0.024539249 0.029760512
-0.027138479 0.01328963 -0.025214577 0.053807214 0.029356247 -0.022087973 -0.015977567 -0.016753878
0.04460768 0.046470255 -0.014725479 -0.0029293273 -0.0223936 0.003984387 0.0007700853 0.083385035
0.003306146 0.04700948 -0.02541089 0.006722531 0.040414795 0.007851545 0.02672176 -0.003207651
00000000: 6131 663c 4ac7 9cbc c43f ecba c4f2 b23c
00000010: 51f8 d3bc c903 953d 8906 c9bc 51cc f33c
00000020: 8451 debc c0bc 593c cd8e cebc f464 5c3d
00000030: 837c f03c d6f1 b4bc 63e3 82bc 6e3f 89bc
00000040: 8bb6 363d 9857 3e3d 2343 71bc f5f9 3fbb
00000050: c872 b7bc 768f 823b 8ddf 493a c6c5 aa3d
00000060: edab 583b 038d 403d 802a d0bc ad48 dc3b
00000070: fc89 253d c4a3 003c 98e7 da3c 7437 52bb

conv23.weight f4 [32, 32, 5, 5]
-0.035996336 -0.01201292 -0.07604403 -0.061469547 0.013110427 -0.009580346 -0.03126281 -0.057299484
-0.047296032 -0.002850572 -0.010088466 -0.00042380122 -0.0010107396 -0.035800494 0.053737618 -0.05244616
-0.014450722 -0.030860703 0.016729325 0.03918304 -0.023517767 -0.0075325305 0.0041570137 0.02351447
0.05293529 -0.015807765 -0.034925073 0.026134301 -0.01875218 -0.00025647468 0.022545211 -0.008294205
0.04689028 0.0023531206 -0.020354023 -0.027996048 -0.023844272 0.028624836 -0.014192469 -0.020010049
-0.024565032 0.013483938 -0.00048314143 -0.012083036 -0.029638508 -0.0030472877 -0.033502318 -0.008970076
-0.007178986 -0.024657663 0.019942768 -0.039753795 -0.0051378794 -0.0024178505 0.0006631365 0.0032675837
-0.022046696 0.019245282 0.04943661 -0.03754009 0.027826775 0.03189467 0.07466784 0.0077376817
-0.0029637981 0.015767053 0.03923944 0.005299624 0.035806533 -0.03228682 0.056662478 -0.004090799
0.026277842 -0.013879347 -0.0050942595 0.041789874 -0.014095016 -0.03043578 -0.021633686 -0.020415766
0.043783214 -0.002407526 -0.029344516 0.020472836 -0.008527373 0.019917214 -0.04187435 0.00835696
0.06017675 0.032273043 0.007993559 -0.02841244 -0.01783396 0.05981114 -0.05863442 0.031600963
-0.021005094 0.017548142 -0.019269424 -0.07701837 0.0041881804 -0.05065306 -0.031062521 -0.023291614
0.012519886 -0.045503512 -0.032705545 -0.028713452 0.00968289 -0.0052007684 0.007581933 -0.04628338
-0.0152410455 -0.015359584 0.03170999 -0.0039543114 0.014809205 -0.0018411166 0.027207952 0.025186509
-0.02843188 0.01006021 0.028430894 0.007868996 -0.020697532 -0.016122874 0.015679495 -0.005648357
0.04341762 0.00057085435 -0.029378057 -0.08187052 -0.035789825 -0.00016340023 0.01465695 -3.07079e-05
-0.07545901 -0.030172765 0.03964635 -0.0043786773 0.0362633 -0.06260611 -0.0323231 0.00871658
-0.018569205 0.062246002 0.012931328 0.0447357 0.018837286 -0.053297035 -0.009511143 -0.018362738
0.00056515646 -0.03218085 -0.016537217 0.032913618 0.038197234 0.032822683 -0.012550907 0.006419267
-0.005122687 0.022618482 0.054672647 0.036474064 0.003378979 -0.01911776 -0.026402865 0.004686238
-0.020018546 0.049932566 0.051514447 0.044162687 -0.014551483 -0.017034706 -0.0035963133 -0.04530571
-0.017886238 -0.019997792 -0.02072515 0.006309853 -0.020103892 -0.01012949 -0.04203458 -0.03575612
-0.027541505 -0.0398777 -0.05162024 -0.033606313 0.016801756 -0.0043698796 -0.028913485 -0.03992093
-0.033587426 0.001566382 0.034433343 -0.011649281 -0.023632407 -0.021185571 0.0063537513 0.005270502
-0.032939527 -0.10434517 -0.08939943 -0.019302446 -0.046911597 -0.031848725 0.0016215914 -0.0057524317
0.01865382 0.009377726 0.025088985 0.031904593 0.08562423 0.02778163 0.047603257 -0.012556984
-0.028947135 0.032551978 0.01769787 0.016021414 -0.023038868 -0.028735237 -0.008461682 0.04480326
0.028046774 0.011874596 -0.01207714 -0.030698875 0.007999591 0.031579427 0.014019056 0.003965504
0.040103003 -0.017999385 -0.005892763 -0.05165112 -0.006896174 -0.021109445 0.0053351014 -0.01052202
-0.03576476 0.030632751 0.02703162 0.012571675 -0.046435673 0.0018857099 0.018496633 0.003203874
0.003490067 -0.021783013 -0.0037534297 -0.0631893 0.0028061338 -0.048354045 0.008486848 -0.030700918
00000000: e570 13bd d7d1 44bc f9bc 9bbd 7ec7 7bbd
00000010: 1ecd 563c e2f6 1cbc 6f0d 00bd ddb2 6abd
00000020: 7cb9 41bd aad0 3abb 184a 25bc a331 deb9
00000030: cb7a 84ba 8aa3 12bd fa1b 5c3d c9d1 56bd
00000040: b9c2 6cbc 96cf fcbc f00b 893c 657e 203d
00000050: 55a8 c0bc 72d3 f6bb 8f37 883b 6ba1 c03c
00000060: add2 583d 497f 81bc 980d 0fbd 9a17 d63c
00000070: 2c9e 99bc 7377 86b9 bcb0 b83c 6be4 07bc
00000080: 0610 403d d036 1a3b 7bbd a6bc f857 e5bc
00000090: 1055 c3bc a27e ea3c 8887 68bc 1dec a3bc
000000a0: 9b3c c9bc bceb 5c3c 254e fdb9 edf7 45bc
000000b0: 75cc f2bc 01b5 47bb ba39 09bd 3af7 12bc
000000c0: b33d ebbb defe c9bc 045f a33c e0d4 22bd
000000d0: a85b a8bb cd74 1ebb 56d6 2d3a f524 563b
000000e0: 469b b4bc 48a8 9d3c 0b7e 4a3d a3c3 19bd
000000f0: faf4 e33c fca3 023d 74eb 983d 618c fd3b
00000100: 483c 42bb e829 813c 89b9 203d 78a8 ad3b
00000110: dfa9 123d 2f3f 04bd ea16 683d 1c0c 86bb
00000120: a144 d73c 3366 63bc bfed a6bb dc2b 2b3d
00000130: c8ee 66bc 7554 f9bc 2139 b1bc f73e a7bc
00000140: 0756 333d 95c7 1dbb e963 f0bc a6b6 a73c
00000150: 65b6 0bbc 6d29 a33c 7084 2bbd a1eb 083c
00000160: e57b 763d bd30 043d 6bf7 023c 35c1 e8bc
00000170: 8618 92bc 87fc 743d a52a 70bd 0370 013d
00000180: e012 acbc 1fc1 8f3c e9da 9dbc cfbb 9dbd
00000190: 013d 893b 9579 4fbd d476 febc 0ece bebc
000001a0: 3520 4d3c e461 3abd 40f6 05bd 7938 ebbc
000001b0: fca4 1e3c 356b aabb dd71 f83b a493 3dbd
000001c0: 94b5 79bc c4a6 7bbc 56e2 013d 2b93 81bb
000001d0: 4fa2 723c 9f51 f1ba 36e3 de3c f053 ce3c
000001e0: f9e9 e8bc 94d3 243c e8e7 e83c f6ec 003c
000001f0: df8d a9bc 1e14 84bc 4972 803c da15 b9bb
00000200: add6 313d 63a5 153a 40aa f0bc bbab a7bd
00000210: 5a98 12bd 6a56 2bb9 b423 703c 5bcc 00b8
00000220: 418a 9abd e02c f7bc 3664 223d 027b 8fbb
00000230: d388 143d a237 80bd 3a65 04bd fdcf 0e3c
00000240: 721e 98bc aaf5 7e3d ecdd 533c c83c 373d
00000250: a750 9a3c fe4d 5abd a0d4 1bbc 746d 96bc
00000260: 0227 143a 11d0 03bd 0f79 87bc 6ed0 063d
00000270: b474 1c3d 1471 063d 52a2 4dbc b758 d23b
00000280: 37dc a7bb 654a b93c 6df0 5f3d d465 153d
00000290: dc71 5d3b d99c 9cbc d24a d8bc 038f 993b
000002a0: effd a3bc 1786 4c3d d000 533d efe3 343d
000002b0: 5869 6ebc 5e8c 8bbc 20b0 6bbb 7b92 39bd
000002c0: 2986 92bc 69d2 a3bc cac7 a9bc e2c2 ce3b
000002d0: ebb0 a4bc 29f6 25bc 742c 2cbd 0275 12bd
000002e0: b99e e1bc cd56 23bd bf6f 53bd c6a6 09bd
000002f0: d6a3 893c 3531 8fbb f9db ecbc 2184 23bd
00000300: f892 09bd 0f4f cd3a fa09 0d3d a0dc 3ebc
00000310: c098 c1bc 5d8d adbc 2133 d03b 2db4 ac3b
00000320: 99eb 06bd ecb2 d5bd 0c17 b7bd 2a20 9ebc
00000330: 6026 40bd cf73 02bd 948b d43a e57e bcbb
00000340: e5cf 983c 09a5 193c 6a87 cd3c 64ae 023d
00000350: c25b af3d 4d96 e33c a2fb 423d cfbb 4dbc
00000360: 8b22 edbc 3955 053d 20fb 903c 573f 833c
00000370: 02bc bcbc 2966 ebbc dea2 0abc a083 373d
00000380: 59c2 e53c aa8d 423c 32df 45bc 357c fbbc
00000390: b710 033c 6e59 013d 2fb0 653c 0ff1 813b
000003a0: 0c43 243d 7273 93bc 1418 c1bb 2090 53bd
000003b0: 4df9 e1bb b7ed acbc 13d2 ae3b 8d64 2cbc
000003c0: 127e 12bd 89f1 fa3c 6a71 dd3c 6df9 4d3c
000003d0: 5533 3ebd ed29 f73a 4086 973c 16f8 513b
000003e0: 9cb9 643b 4a72 b2bc 1afc 75bb 6469 81bd
000003f0: 1de7 373b e40e 46bd 6c0c 0b3c 7e80 fbbc

conv23.bias f4 [32]
-0.012363124 0.036977585 0.005034358 -0.028239451 0.014865504 0.01318651 0.05607846 0.03753517
-0.009191186 0.048023067 -0.001806197 0.021808865 -0.0012900356 -0.022833347 0.006520773 0.06816511
-0.035754446 -0.0025840197 -0.0027938348 -0.05158454 0.007487989 -0.037307344 0.03013395 0.01651455
-0.018244708 0.02538028 -0.011308956 0.0006924399 0.011665356 0.026125163 0.007010201 -0.028742677
00000000: b38e 4abc cf75 173d 41f7 a43b 6c56 e7bc
00000010: 718e 733c 3b0c 583c 87b2 653d 7abe 193d
00000020: a196 16bc d6b3 443d eabd ecba 81a8 b23c
00000030: 6916 a9ba 000d bbbc 35ac d53b 269a 8b3d
00000040: 4173 12bd a858 29bb c518 37bb 504a 53bd
00000050: ce5d f53b 96cf 18bd 79db f63c 8649 873c
00000060: ed75 95bc 4eea cf3c 3349 39bc db84 353a
00000070: 0d20 3f3c 7004 d63c d4b5 e53b c375 ebbc

conv24.weight f4 [32, 32, 5, 5]
0.05104252 -0.030690547 0.005928088 -0.042025536 -0.05028983 0.046259318 -0.03080726 -0.02968139
-0.025954591 0.041813683 -0.006079728 0.053034034 0.066957615 0.0105758915 -0.0015938854 0.05056473
0.02774819 0.021103367 -0.0002251569 0.014610091 -0.0182703 -0.03164837 0.010130743 0.023468759
0.003564994 0.0073033324 0.011175239 0.059934836 0.012643902 -0.020247862 -0.04498474 -0.031153427
0.04892676 0.049799908 0.024326582 0.010452066 -0.025613334 -0.02270573 0.030148407 -0.024441527
0.0013592548 0.0023072062 -0.023197658 -0.016859181 -0.007419837 -0.0037918382 0.0018702681 0.036231842
-0.032740798 -0.025507519 0.11632089 0.054692384 -0.018707149 -0.013609255 0.039997052 0.09370169
0.0657865 -0.0020321095 -0.041309517 -0.018517822 0.016414855 0.06857202 0.016595678 -0.057167586
-0.02257648 0.041435543 0.0015733036 0.0280266 -0.03685274 0.0016244381 0.034144636 0.058155596
0.060992077 -0.03218621 -0.045697294 0.015339609 -0.0048349453 0.0018925642 0.009018082 -0.055620447
-0.037723664 -0.047193848 -0.024122307 -0.036264207 -0.037599698 0.0005864089 -0.045820292 -0.0019236158
0.015225656 -0.009383225 -0.040198416 0.01895275 -0.01092541 0.025740594 -0.02363457 0.022797508
0.022202533 -0.016385864 0.025298098 0.0079955 -0.017665455 0.003997054 0.032180198 -0.021933326
0.0063863196 -0.019510152 0.029168265 0.0023272722 0.04164563 0.011384678 0.049083527 -0.011692752
0.001189147 -0.02343001 -0.03382664 0.028364459 0.011253775 -0.0048187007 0.005509593 0.01118291
0.015760722 0.0049878582 -0.02128237 -0.018748753 0.033429306 -0.011624595 0.0032699215 0.016122825
0.028301101 -0.009889387 -0.034066457 -0.049720414 -0.0077652885 -0.0114464685 -0.022388339 0.03740783
-0.035333578 -0.013326102 -0.011864855 0.0064902552 0.031580728 -0.03225047 0.035234205 0.031592444
0.003930608 -0.025121246 0.017295813 0.02166735 -0.025493225 0.011330002 -0.03339991 -0.051418766
-0.005277308 0.037493955 0.025981888 -0.011664989 -0.053401954 -0.052679475 -0.021167064 -0.015595778
0.014154296 -0.044603486 -0.039364915 -0.03289565 -0.016036242 0.05142655 -0.024990961 -0.018259808
0.013919497 0.03916576 0.06364674 -0.0045900955 -0.050448038 -0.033076864 -0.021418411 0.0006266911
-0.032892317 -0.03846733 0.02855899 0.027215682 0.030352373 -0.061905634 0.011728216 0.047912322
0.037023332 0.11332277 -0.0063046343 -0.019684866 -0.014870853 -0.034048494 0.07663737 -0.017826373
-0.049122527 -0.026867295 -0.027977802 0.073993064 0.0010215287 -0.047782406 -0.013280375 -0.04594653
0.069022715 0.08926171 0.108005516 0.047301963 0.15544863 -0.022696313 0.021686517 0.085559756
0.11977965 0.13940303 -0.06262698 -0.05924736 0.08373775 0.13321997 0.11532754 0.01045786
0.00445311 0.06076246 0.13618106 0.03786552 0.11215809 0.0035753725 0.044862933 0.090902716
-0.026859652 0.05137791 -0.08867155 -0.058376797 0.041161675 0.05286071 0.05376425 -0.094477616
-0.07537711 0.052131828 0.0455284 0.045887027 -0.06243607 -0.09535364 0.066396154 0.061262634
0.024684848 0.006791509 -0.04547555 0.0011731153 0.02683348 0.06456433 -0.010575167 -0.01355513
-0.015789459 -0.022697797 -0.0033704748 -0.020456724 -0.054690823 -0.061493274 -0.019237438 0.017100448
00000000: f611 513d be6a fbbc 6840 c23b f822 2cbd
00000010: b5fc 4dbd 697a 3d3d 825f fcbc 6326 f3bc
00000020: b99e d4bc d344 2b3d 7438 c7bb 373a 593d
00000030: 1321 893d 8146 2d3c ebe9 d0ba f61c 4f3d
00000040: 2c50 e33c f8e0 ac3c 1818 6cb9 2a5f 6f3c
00000050: 99ab 95bc b9a1 01bd 6afb 253c 8e41 c03c
00000060: ada2 693b cb50 ef3b 5a18 373c 3b7e 753d
00000070: 5e28 4f3c d8de a5bc eb41 38bd 7935 ffbc
00000080: 6d67 483d fdfa 4b3d 8a48 c73c 243f 2b3c
00000090: 0ed3 d1bc 5e01 babc cbf9 f63c 9939 c8bc
000000a0: 0629 b23a 7f34 173b 0409 bebc 441c 8abc
000000b0: 1b22 f3bb 7d80 78bb c923 f53a d767 143d
000000c0: 371b 06bd 25f5 d0bc a639 ee3d 1f05 603d
000000d0: bc3f 99bc 5af9 5ebc f3d3 233d ace6 bf3d
000000e0: 13bb 863d 242d 05bb 2b34 29bd b0b2 97bc
000000f0: 7278 863c 7d6f 8c3d a9f3 873c 8f28 6abd
00000100: 4ff2 b8bc 51b8 293d 4f37 ce3a 0a98 e53c
00000110: e6f2 16bd 19eb d43a 3fdb 0b3d 9034 6e3d
00000120: d4d2 793d b0d5 03bd 162d 3bbd fc52 7b3c
00000130: 766e 9ebb eb0f f83a 94c0 133c 44d2 63bd
00000140: 2184 1abd 564e 41bd 259c c5bc c789 14bd
00000150: 2402 1abd 3cb9 193a 0fae 3bbd d621 fcba
00000160: 0875 793c 19bc 19bc 18a7 24bd cc42 9b3c
00000170: 7e00 33bc f0dd d23c 499d c1bc d7c1 ba3c
00000180: 16e2 b53c a63b 86bc f53d cf3c 8fff 023c
00000190: 25b7 90bc b8f9 823b 62cf 033d 85ad b3bc
000001a0: 5544 d13b c1d3 9fbc 49f2 ee3c 2685 183b
000001b0: 9c94 2a3d cd86 3a3c cf0b 493d f592 3fbc
000001c0: 27dd 9b3a 4bf0 bfbc ce8d 0abd 955c e83c
000001d0: c161 383c 31e6 9dbb d189 b43b 8638 373c
000001e0: a11c 813c 3071 a33b 5d58 aebc fc96 99bc
000001f0: 2bed 083d 1675 3ebc 2e4c 563b 0414 843c
00000200: b6d7 e73c 1807 22bc 4589 0bbd a2a7 4bbd
00000210: f673 febb f889 3bbc c067 b7bc f438 193d
00000220: f1b9 10bd b955 5abc cf64 42bc 35ac d43b
00000230: cb5a 013d 1219 04bd be51 103d 1467 013d
00000240: 54cc 803b 12cb cdbc f3af 8d3c ba7f b13c
00000250: 2bd7 d0bc 79a1 393c 58ce 08bd 7c9c 52bd
00000260: 45ed acbb 4393 193d f8d7 d43c 831e 3fbc
00000270: 02bc 5abd 6fc6 57bd 8d66 adbc 6f85 7fbc
00000280: 6ce7 673c 25b2 36bd 1b3d 21bd 97bd 06bd
00000290: 705e 83bc a5a4 523d d8b9 ccbc 9895 95bc
000002a0: 9a0e 643c 476c 203d 3959 823d 8368 96bb
000002b0: 9aa2 4ebd 9b7b 07bd aa75 afbc 8748 243a
000002c0: 18ba 06bd eb8f 1dbd 8bf4 e93c 6cf3 de3c
000002d0: 8aa5 f83c c390 7dbd b427 403c b63f 443d
000002e0: c7a5 173d c515 e83d 1b97 cebb 2842 a1bc
000002f0: e1a4 73bc 6f76 0bbd 0ef4 9c3d 9d08 92bc
00000300: b434 49bd cd18 dcbc b431 e5bc ad89 973d
00000310: d1e4 853a 7cb7 43bd ee95 59bc 6e32 3cbd
00000320: c85b 8d3d d8ce b63d ff31 dd3d b4bf 413d
00000330: ed2d 1f3e 9eed b9bc eca7 b13c f439 af3d
00000340: 084f f53d abbf 0e3e 9342 80bd 5cad 72bd
00000350: b37e ab3d d16a 083e d830 ec3d 7257 2b3c
00000360: 65eb 913b 0fe2 783d 0c73 0b3e e018 1b3d
00000370: 24b3 e53d cc50 6a3b 32c2 373d 342b ba3d
00000380: c608 dcbc a571 523d 6e99 b5bd 821c 6fbd
00000390: 2599 283d 7984 583d e737 5c3d 7b7d c1bd
000003a0: 505f 9abd 2f88 553d fd7b 3a3d 09f4 3b3d
000003b0: f7bc 7fbd c548 c3bd b5fa 873d 87ee 7a3d
000003c0: e137 ca3c 4f8b de3b 9244 3abd 38c3 993a
000003d0: e3d1 db3c 4e3a 843d 7743 2dbc 5616 5ebc
000003e0: e558 81bc bbf0 b9bc 2fe3 5cbb dc94 a7bc
000003f0: 7c03 60bd 5fe0 7bbd d597 9dbc 3d16 8c3c

conv24.bias f4 [32]
-0.057457488 0.044158876 -0.0063927076 0.033470087 0.04350147 -0.0014077482 0.015158572 0.032661892
0.034231335 -0.03590226 -0.028542051 -0.015725695 0.035766542 -0.017937487 -0.03137204 0.02655192
-0.03874985 0.023484394 0.04561232 0.052782986 0.0008443638 -0.05049029 0.07241424 0.024751006
0.024007246 0.08425577 0.0436346 0.045400005 0.016985623 0.015504617 0.02116007 0.056051854
00000000: 8b58 6bbd f0df 343d eb79 d1bb ee17 093d
00000010: 992e 323d 3184 b8ba a95b 783c 7ac8 053d
00000020: 2836 0c3d 400e 13bd 05d1 e9bc 2cd3 80bc
00000030: f07f 123d a3f1 92bc f87f 00bd 6a83 d93c
00000040: 2ab8 1ebd 5862 c03c fcd3 3a3d f932 583d
00000050: 4c58 5d3a e8ce 4ebd eb4d 943d 9fc2 ca3c
00000060: d8aa c43c 4a8e ac3d 32ba 323d 5bf5 393d
00000070: 6f25 8b3c 1407 7e3c e257 ad3c a196 653d

conv25.weight f4 [32, 32, 5, 5]
-0.012956522 0.030153614 0.052044697 0.07062651 -0.0034966879 0.057313215 0.055765323 0.012676609
0.0021393485 -0.01932969 0.039334673 0.04942841 0.005273068 -0.03299183 -0.04210471 -0.057318013
0.0202218 0.05937625 -0.03327094 -0.011219723 -0.0979654 -0.051534194 -0.015096679 0.06442551
-0.006129941 0.041178994 0.031278662 -0.06514339 -0.065225035 0.0055323825 -0.042073134 -0.0881544
-0.07390765 -0.062230833 0.023884041 -0.023099558 -0.008647313 -0.025397338 -0.050606217 0.039603263
-0.032344382 -0.002284118 0.018569583 -0.04792307 -0.02621471 -0.065273926 -0.044064175 -0.028224522
-0.06754518 -0.0080311075 0.01268152 0.0036133225 0.007994032 -0.04922822 -0.017124303 -0.025285209
-0.05856369 -0.02617228 -0.00605299 0.0255862 -0.030382065 -0.057225347 -0.03345973 0.0069307378
0.0033746313 -0.040429126 -0.024766551 -0.012256299 -0.026530107 -0.032468215 0.012162463 -0.0049170675
0.01012013 -0.0009946307 -0.033662748 0.0062957467 -0.024894536 -0.066198945 -0.04757325 -0.028845757
0.0021153216 -0.022907259 -0.046894256 0.022732304 0.0004167316 0.02149037 0.0338337 0.037998136
0.0005042541 -0.0033399826 0.06791583 0.032673076 0.0401643 0.026250912 0.025382726 0.02075419
-0.04290886 -0.045828428 -0.012041195 -0.02456421 -0.040181603 0.0032899657 0.029048843 0.032352354
0.040017623 -0.045324825 -0.024504574 0.019685015 0.019095391 -0.030293543 0.019467933 0.0019702527
0.014162653 0.052310605 0.033735372 0.012053168 -0.009303105 0.010732869 -0.018197222 -0.02053312
0.017685391 0.0011437185 0.003643623 -0.011199405 0.011042014 -0.023108725 -0.025482709 -0.037705418
-0.024200581 -0.033627797 -0.035546966 -0.025139948 -0.0429001 -0.0013706271 0.022819312 0.006225013
0.038131002 0.052498013 0.041650686 0.026418112 -0.014475416 0.008302164 0.043426618 -0.011763056
0.03380288 -0.010974762 0.046182796 0.040791173 -0.008371278 -0.02295647 0.010769058 0.004224292
-0.020234717 -0.06190458 -0.10747707 -0.07019923 -0.080431595 -0.02189165 -0.07352277 -0.01760374
0.0145708425 -0.012050063 0.005001938 0.0074958876 0.01571677 -0.041424308 0.00391778 -0.0058234823
-0.011846018 -0.0033808087 0.0023224172 0.0017788609 -0.034480713 -0.03404395 -0.02192263 -0.0042318064
-0.042945273 -0.033058383 -0.04204256 0.03473474 -0.042997964 0.009543067 -0.030107936 -0.049192913
0.018411418 -0.04079217 -0.031947162 0.020783959 -0.0030086678 0.0012259786 0.040572084 -0.014714362
-0.041128147 -0.03739011 -0.002739872 0.027263276 0.010106514 -0.025050458 -0.02536349 -0.03047875
-0.032861557 -0.039830443 0.006603315 0.02860374 0.03219637 -0.025715267 -0.01814035 0.039430827
0.056795698 0.027005993 -0.027652306 0.016410394 -0.0062582484 -0.007995946 -0.011263905 0.006079491
0.011006978 0.019502161 0.021787114 -0.00054025365 0.017597552 0.036031976 0.032758884 0.032412577
-0.03783822 0.015227174 0.06416537 0.03244762 0.0942897 0.029065946 -0.026732119 0.06479822
0.033538096 0.046262182 0.043206844 -0.003857487 0.018562986 0.048740547 0.09879304 0.0958573
0.036597166 0.052564267 0.076658726 0.038309656 0.021238854 0.007002436 -0.0117003415 0.058624007
0.026624583 0.03162224 0.023924997 0.036233496 0.070996925 0.11615511 0.028345726 -0.0011057684
00000000: 9847 54bc b604 f73c d22c 553d a2a4 903d
00000010: b028 65bb 43c1 6a3d 2e6a 643d 8db1 4f3c
00000020: 5034 0c3b 4c59 9ebc 651d 213d 7275 4a3d
00000030: b3c9 ac3b 7122 07bd fd75 2cbd 4bc6 6abd
00000040: 30a8 a53c 8334 733d 1c47 08bd eed2 37bc
00000050: 15a2 c8bd 8515 53bd 1058 77bc 86f1 833d
00000060: acdd c8bb 4eab 283d 0e1e 003d e669 85bd
00000070: b494 85bd fd48 b53b e154 2cbd 4b8a b4bd
00000080: e55c 97bd c2e5 7ebd 77a8 c33c 493b bdbc
00000090: 76ad 0dbc 140e d0bc 7748 4fbd 0837 223d
000000a0: 8b7b 04bd 24b1 15bb 3d1f 983c fb4a 44bd
000000b0: 3bc0 d6bc 56ae 85bd a37c 34bd 1d37 e7bc
000000c0: 2155 8abd e894 03bc 26c6 4f3c 7ecd 6c3b
000000d0: 67f9 023c 88a3 49bd 4448 8cbc ed22 cfbc
000000e0: 7be0 6fbd 4067 d6bc 2958 c6bb 279a d13c
000000f0: cfe3 f8bc 2065 6abd 120d 09bd 3e1b e33b
00000100: eb28 5d3b 0399 25bd 39e3 cabc a5ce 48bc
00000110: ab55 d9bc 64fd 04bd 1145 473c 5a1f a1bb
00000120: e7ce 253c 455e 82ba f3e1 09bd 8d4c ce3b
00000130: a0ef cbbc 5093 87bd 2bdc 42bd f04d ecbc
00000140: 35a1 0a3b 01a8 bbbc 3114 40bd 1939 ba3c
00000150: c57c da39 930c b03c 3595 0a3d efa3 1b3d
00000160: eb2f 043a 9ce3 5abb 7417 8b3d 34d4 053d
00000170: 5283 243d 270c d73c 6fef cf3c b104 aa3c
00000180: 33c1 2fbd 97b6 3bbd 6f48 45bc e23a c9bc
00000190: 7795 24bd 779c 573b d7f7 ed3c e783 043d
000001a0: 85e9 233d 86a6 39bd d1bd c8bc 7842 a13c
000001b0: f06d 9c3c 2a2a f8bc 377b 9f3c 5b1f 013b
000001c0: 790a 683c a543 563d 1a2e 0a3d a77a 453c
000001d0: 0d6c 18bc ead8 2f3c 5712 95bc 1335 a8bc
000001e0: f4e0 903c d3e8 953a dac9 6e3b b67d 37bc
000001f0: 90e9 343c 824e bdbc 1dc1 d0bc ff70 1abd
00000200: 4c40 c6bc 4dbd 09bd b299 11bd 4bf2 cdbc
00000210: 04b8 2fbd 9da6 b3ba 91ef ba3c 32fb cb3b
00000220: 412f 1c3d 2808 573d e999 2a3d cc6a d83c
00000230: 4c2a 6dbc cd05 083c 1ce0 313d d5b9 40bc
00000240: e474 0a3d 7dcf 33bc 2c2a 3d3d a514 273d
00000250: af27 09bc 350f bcbc b470 303c ee6b 8a3b
00000260: 47c3 a5bc a88f 7dbd f01c dcbd 9dc4 8fbd
00000270: 52b9 a4bd 1e56 b3bc 1b93 96bd b835 90bc
00000280: 8bba 6e3c a16d 45bc 4ce7 a33b 10a0 f53b
00000290: 75c0 803c 89ac 29bd b860 803b e9d2 bebb
000002a0: cd15 42bc 8f90 5dbb b233 183b ab28 e93a
000002b0: a63b 0dbd ab71 0bbd 1697 b3bc f7aa 8abb
000002c0: 62e7 2fbd 3a68 07bd d234 2cbd 0446 0e3d
000002d0: a21e 30bd 865a 1c3c eba4 f6bc 827e 49bd
000002e0: 8bd3 963c b115 27bd 07db 02bd 1f43 aa3c
000002f0: 122d 45bb 04b1 a03a ea2e 263d 8214 71bc
00000300: fd75 28bd 5f26 19bd 6d8f 33bb 3c57 df3c
00000310: cb95 253c 9e36 cdbc 18c7 cfbc 92ae f9bc
00000320: d799 06bd 3f25 23bd 9f60 d83b 6452 ea3c
00000330: 57e0 033d d3a8 d2bc 129b 94bc 3882 213d
00000340: 9ba2 683d ac3b dd3c 1787 e2bc 176f 863c
00000350: fe11 cdbb 6e01 03bc 3e8c 38bc 7836 c73b
00000360: 9d56 343c ffc2 9f3c e47a b23c cf9f 0dba
00000370: be28 903c 4496 133d 2e2e 063d 0dc3 043d
00000380: 40fc 1abd 667b 793c 2269 833d cce7 043d
00000390: f51a c13d b51b ee3c 51fd dabc eeb4 843d
000003a0: 3e5f 093d 6a7d 3d3d a9f9 303d e5cd 7cbb
000003b0: 6711 983c 2ba4 473d 0154 ca3d d550 c43d
000003c0: e9e6 153d a14d 573d 40ff 9c3d 96ea 1c3d
000003d0: 1bfd ad3c b174 e53b cab2 3fbc ba1f 703d
000003e0: cc1b da3c 5286 013d 5bfe c33c 9369 143d
000003f0: d666 913d bbe2 ed3d 4c35 e83c 6eef 90ba

conv25.bias f4 [32]
-0.03878021 -0.008199472 -0.02142654 -0.009461108 0.01669629 0.054210283 -0.025541015 -0.0034167252
-0.035594795 -0.023468552 0.018727465 0.018143572 -0.035108544 -0.008749326 -0.014468128 -0.026186096
0.04677231 -0.035627265 -0.034656733 0.01478656 -0.012031466 0.018276433 -0.008383342 -0.030209005
-0.028715272 0.014582648 0.039328218 -0.040246036 0.016666327 -0.031579267 0.02513059 0.009478623
00000000: ffd7 1ebd 1457 06bc b686 afbc c302 1bbc
00000010: a8c6 883c 9a0b 5e3d 643b d1bc 23eb 5fbb
00000020: d9cb 11bd 1f41 c0bc 576a 993c d4a1 943c
00000030: facd 0fbd 5559 0fbc ba0b 6dbc 3984 d6bc
00000040: 5294 3f3d e5ed 11bd 38f4 0dbd 5443 723c
00000050: a01f 45bc 75b8 953c 495a 09bc e078 f7bc
00000060: 4a3c ebbc 0fec 6e3c a016 213d 07d9 24bd
00000070: d287 883c 4359 01bd abde cd3c 3a4c 1b3c
