model/b.pth (torch, 231589 bytes, 5 tensors)

conv1.weight f4 [64, 1, 9, 9]
00000000: e4d4 78be 7e6d a5be e8e0 bf3c c03f 2b3d
00000010: 2219 10bd 3902 38bd 1937 6e3d 973c 5a3d
00000020: 38f5 5dbd 7372 70be 972b 95be c727 db3c
00000030: 45f0 da3d 02f2 3ebd d598 2abd 1f26 5cbd
00000040: 3105 de3b fcae d93b b4f1 0ebe b26e b0be
00000050: 1435 22bd 5239 553c d6da b03d 595b 52bc
00000060: 8a36 bbbd a920 923c 3aba b2bd 4273 91be
00000070: ccbc 56be 87bd 14be 5d62 b83d 86e3 d83d
00000080: f177 b83c 5d8f d7bd a122 be3d ebad c23d
00000090: 108b ddbe e937 93be b484 0ebe cef6 75bd
000000a0: cf0c 2e3c 1cc5 c33d bba2 20bd c37c 54bc
000000b0: ea42 093d f062 a2be 42b2 3dbe d0e9 bebc
000000c0: e547 043e a86f 163d 6c7b 953c ff95 d1bd
000000d0: b536 46bd 341f 363c 12f9 99be 5bda a2be
000000e0: 7b94 f6bd 788c 8bbd 2ee1 593d 87f0 dc3d
000000f0: c516 ac3d ff66 e33d c4f9 1d3d 7769 8fbe
00000100: 8bb6 98be 84b8 8c3d b37f b0bd 8822 683d
00000110: 6070 603d fa8b 9c3c c8ca 82bd 5102 19ba
00000120: 24f2 6abe b58f 80be 0232 debd a15a 723d
00000130: 2a44 40bc 31c8 a5bd 9807 d1bd 188f 3d3d
00000140: b997 7fbd ec50 293e fdeb 2ebc 91fc 9cbd
00000150: d38e ac3d 4000 cfbd 2b67 593c f04c 6abd
00000160: 2627 d23d 8b5b 8abd d48e 323d 3f44 56bd
00000170: 963b 9cbd 70dc 05be eacf 913d 795a efbd
00000180: 6582 e93c 9902 cb3d a7e6 c13d 0e70 b23d
00000190: 69ab 14be 63e4 d2bd d22b c4bd 22f0 ad3b
000001a0: 1fbe afbd dd4b 8ebd 2a4a 5a3c fbf2 a8bc
000001b0: 4fd9 ca3c 623e adbd 3888 11bc e1cf d2bc
000001c0: e155 8b3c 1d07 783d 42cf a73c 719a e1bd
000001d0: 0d9d ebbd 1d9f aabd 907c efbd 7530 7b3d
000001e0: dd42 8d3d 49ca be3d 4ae0 8ebc e25a 093d
000001f0: 6499 05be 0864 97b8 553f 943d a644 7e3d
00000200: 9e70 21bc 9227 bc3d d4fa 5b3d 758d b23d
00000210: a07c 79bc dba0 9a3d d075 953c ee01 cc3d
00000220: 9070 7bbd 8497 023e 6f6e 89bd 2e97 97bd
00000230: c5d6 31bd 9cba 78bd 0deb babb 0efa 4dbd
00000240: 50d5 3a3d b9ef 4d3d 2a6b f63d 3bea 1d3d
00000250: 7571 08bc 8b3d bc3c 323e c7bd 50a8 a23d
00000260: 9fac bf3d d5b0 223c 06b3 f7bd 3e98 e83c
00000270: bf89 803d 0078 43bd 1acc a9bc e062 a33c
00000280: 46dc db3d 5db6 173d 63be c0bd 0561 893d
00000290: 731f fa3b 3c32 563d e01c ce3d 4126 173e
000002a0: 2e57 0b3e 669a a4bb 75cc 103c e89c cd3d
000002b0: 99da d8bd af86 21bd 8741 a23b e0a2 e1bd
000002c0: 64a0 a23d 7a38 8b3d c629 333d 614a 9c3d
000002d0: 9378 3b3d fc66 c83d c2fa 96bd 2053 64bd
000002e0: 100e 833d b8be 0ebe 35f4 c2bd 5059 d53d
000002f0: a965 dcbd 8156 1e3c c62c 623b af22 ffbd
00000300: 5dd2 84bd 410f 603c d30e c0bd a26a 9c3c
00000310: 760c 79bd f546 e5bc 1575 033d 6059 1bbd
00000320: c09a 3bbd 1985 c93c e4c9 92bd 3074 22bc
00000330: 8d0d cf3d 4c55 11bd e7dc 8bbd d6bf 563d
00000340: 2df4 813d 703c 953d 3a1b 32bd 0103 b73d
00000350: f7bd dd3d 81c2 98bd 56c5 ed3d e51b 0f3d
00000360: dd20 f6bd a022 cbbd 65ec 533d 35ea ff3b
00000370: 6ed5 c43d 81d1 2d3d 1fcb 973c 6caf 0ebd
00000380: 5b48 c83d 467e 0c3d bb61 c33d 0e8a 8bbd
00000390: 56c7 8f3d ef71 f43d 4061 12bd 6db6 bcbd
000003a0: ed58 c2bd 9a6a b6bd fd19 7c3c 43df cdbd
000003b0: 950e a63d 4a58 6a3d a497 07ba 1eda 8dbd
000003c0: a7f7 633d 3214 d7bd e122 e73c a9ea 233d
000003d0: db91 963c ecf9 4e3d 86cf c33d e29f 50bc
000003e0: c379 e3bb bb4f 73bd 9f8c 1fbd 756f e0bb
000003f0: 8f41 593d 9f72 e5bd fd99 a23d 5896 a7bc
-0.24299961 -0.32310098 0.023422673 0.041808844 -0.03518022 -0.044923995 0.058158014 0.05328044
-0.054188937 -0.23481159 -0.2913482 0.026752366 0.10690359 -0.046617515 -0.04164966 -0.053747293
0.006775521 0.006643174 -0.1395939 -0.34459454 -0.0396014 0.0130141545 0.0863549 -0.012839162
-0.09141262 0.01783784 -0.08726926 -0.28408247 -0.20970458 -0.14525424 0.09003136 0.10590272
0.02251813 -0.10525391 0.09283949 0.095058285 -0.4327016 -0.28753594 -0.1391781 -0.060049824
0.010623171 0.0955908 -0.039217692 -0.012969199 0.03351108 -0.31716108 -0.18525031 -0.02330485
0.1291805 0.036727577 0.018247329 -0.102336876 -0.048392016 0.011115838 -0.30072838 -0.31807217
-0.12040039 -0.06813902 0.053193264 0.107880645 0.084027804 0.11103629 0.038568273 -0.2801015
-0.2982677 0.06871131 -0.08618107 0.056673557 0.05479467 0.019109715 -0.06386334 -0.0005836832
-0.22943932 -0.2510964 -0.10849382 0.05916846 -0.011735002 -0.08094824 -0.102065265 0.046279043
-0.062400553 0.16534775 -0.010676381 -0.07665361 0.08425679 -0.101074696 0.013269226 -0.05720228
0.10261373 -0.06755742 0.043593243 -0.05231118 -0.076285526 -0.13072371 0.071197346 -0.11687178
0.02850456 0.09912605 0.094678216 0.08712779 -0.14518513 -0.102974676 -0.095786706 0.005308167
-0.085811846 -0.069480635 0.013323346 -0.020623675 0.024761824 -0.08459164 -0.008882575 -0.02573389
0.017008724 0.06055366 0.02048457 -0.110157855 -0.115045644 -0.0833113 -0.1169368 0.06132551
0.06897519 0.093159266 -0.017440934 0.03353394 -0.13046795 -7.218873e-05 0.07238642 0.062077187
-0.00985351 0.09187235 0.053706005 0.08718387 -0.015227467 0.07550212 0.018244654 0.099613056
-0.061386645 0.12753111 -0.06710517 -0.07401882 -0.04341771 -0.06072484 -0.00570429 -0.0502873
0.045613587 0.050277445 0.12032159 0.038553458 -0.0083278315 0.022978565 -0.0972866 0.07942259
0.09359097 0.009929855 -0.12094693 0.028392907 0.06276273 -0.047721863 -0.020727206 0.019944608
0.10735373 0.03703915 -0.094113134 0.06707958 0.0076331436 0.052294 0.10064101 0.14760686
0.13607475 -0.0050232885 0.008837809 0.10039693 -0.10588569 -0.039435085 0.004951659 -0.11017394
0.07940748 0.067978814 0.04374101 0.07631374 0.045769285 0.09785268 -0.07372047 -0.055743337
0.063991666 -0.13939941 -0.09519235 0.10417426 -0.10761578 0.009664179 0.003451155 -0.12457787
-0.06485436 0.013675512 -0.093778275 0.019093815 -0.0608029 -0.027987937 0.03209408 -0.03792703
-0.045801878 0.024599599 -0.07167414 -0.009915397 0.101100065 -0.035481736 -0.06829243 0.052429043
0.06345401 0.07286918 -0.043482997 0.0893612 0.108272485 -0.07458974 0.116099045 0.03493871
-0.12017987 -0.099187136 0.051739115 0.007809902 0.09611021 0.042436127 0.018529473 -0.034835264
0.09779426 0.03430011 0.09540125 -0.06813441 0.07020442 0.119357936 -0.035737276 -0.092144825
-0.094896175 -0.089070514 0.015387055 -0.100523494 0.0810825 0.057213105 -0.00051724375 -0.06926368
0.0556561 -0.10501899 0.028214874 0.04001871 0.018380096 0.050531313 0.09561066 -0.0127334315
-0.0069420054 -0.05940221 -0.038952466 -0.006849224 0.053041037 -0.11203503 0.07939527 -0.020457432

conv1.bias f4 [64]
00000000: 6b60 5c3d 14f5 743b 939e d8bd a4fd 3bbd
00000010: 1a04 303c f8fb 99ba 4838 1f3e 9643 39bd
00000020: a49e a0bd 25dd 623d 3434 bbbb f850 983a
00000030: 0b5b 3c3d 49bf b2bd 5e70 023d bce5 173d
00000040: 82c1 5a3d c9ac 98bc bca5 e23d e80a 39bd
00000050: 1d44 813d 1054 133d 8f4d a2bc b852 ffba
00000060: 245d 633d 77bd 13bc ee88 adbc 3987 523d
00000070: 631a 80bc f721 ac3d 0749 c3b8 d450 573d
00000080: f3ff 7cbd d797 5fbc cca3 5b39 7e18 133d
00000090: 5510 36bc 9694 8d3b 20e4 72bd 6d39 8a3c
000000a0: bf51 aeba 35b0 97bd 223a 783d 8bde 0f3d
000000b0: 2d8a 903d e1aa fdba 5442 ed3b 80b3 43bc
000000c0: 2bdd ec3b 785b 80bb 7bc4 253d 1010 873d
000000d0: f9fa af3c ba5d fc3c 1f51 81ba c949 a23d
000000e0: 3c29 22bd 0a17 b8bc 67b4 86bc 1369 a43d
000000f0: 33af c53b ccf9 c73b 887a c23d d34a 653d
0.05380289 0.0037377523 -0.10577121 -0.045896187 0.010743165 -0.0011748066 0.15548813 -0.04523047
-0.07842758 0.05538668 -0.00571301 0.001162081 0.045985263 -0.08727891 0.031845443 0.037084326
0.0534072 -0.018637078 0.110667676 -0.045176417 0.0631182 0.03596884 -0.019812373 -0.0019479608
0.055508748 -0.00901734 -0.021183457 0.05139849 -0.015637582 0.08404916 -9.311927e-05 0.052567318
-0.06176753 -0.013647041 0.00020946487 0.03591203 -0.011112292 0.0043206913 -0.05929959 0.016873086
-0.0013299509 -0.07406656 0.060602315 0.035124343 0.07057605 -0.0019353294 0.007240573 -0.011944652
0.0072285137 -0.003917154 0.04047058 0.065948606 0.021481978 0.030806411 -0.0009866095 0.0792423
-0.039590105 -0.022471923 -0.016443444 0.08027854 0.0060328483 0.006102776 0.09496027 0.05597956

conv2.weight f4 [32, 64, 5, 5]
00000000: 6b50 cdbc 4847 6dbc 7aa5 2a3c 4ebc 923c
00000010: 6d71 40be 3daf 1cbd 0606 8f3c 992f 2b3b
00000020: f2f2 c83b b7a2 f3bd 8515 09bd 9af7 f93c
00000030: b4c2 a5bc 4ac0 27bc 06bb 38bc 7daa 73bc
00000040: 5c89 36bc ce5d e1bc 4548 d8bc d5ef c73d
00000050: 695e f5bc df6a 03bd 8150 10bd d460 30bc
00000060: 1bd6 6fbd d9ad f2bc 0cfa 1abe 3779 123d
00000070: 752f b13d ebb4 983c fef7 a2bc 9b97 06be
00000080: 2a35 d3bb 8aeb 983b c61c 8f3d a1fb 9ebc
00000090: 4a13 50bd 83a3 2bbb fbb0 a3ba 91eb f53c
000000a0: 082e da3a cfcc e8bc 5439 f7ba 4c91 2dbd
000000b0: 3ac5 bdbb aa39 a2bc b577 493d fd51 81bc
000000c0: a222 8bbd 2743 1bbd 1834 b93c cf3a 613c
000000d0: 528d 0fbd b607 0cbc d44d 0bbd 5ec1 1337
000000e0: daf2 10bc 5bee e9bb ec1f c83c fd33 ce3c
000000f0: 4b86 d13b e54d 94bc ce9d ecbc aff2 053d
00000100: d7f5 a93c 8e9e ebbc 97ae 5cbc 507a a7bc
00000110: 4243 873c 95c2 003d 8bfe 733c fccd dcbb
00000120: 6266 8cbc 455e 663d 9d09 683d daac 6bbc
00000130: 6463 563c 89df 193c 6bf6 e4bb 9551 5d3c
00000140: abe9 3fbd 75b2 63bc 6b90 623b a892 e5bb
00000150: f6d7 6e3c 9923 1cbd 40ee 81bb 44c3 c73c
00000160: 9748 eebc 645c 0f3c 3d7d f8bc 6bf7 c13c
00000170: 4d84 1cbc 4b10 a9bb cf61 34bb 6511 763a
00000180: b665 fa3b 708f 18bd 712a 29bb 72a1 ba3c
00000190: 38aa 123d 07fd d03c 243d 1ebd b262 c3bb
000001a0: 6bc7 f43c 3c5d 373d b02c d93b a2b7 ba39
000001b0: c343 2fbc f1a2 143d ab8d c9bc d0f0 dabc
000001c0: 3a27 01bd 7ff9 813b 956a 333d dee7 6a3c
000001d0: 19f6 053d ab32 b4bc 35ae cc3b 887d 233d
000001e0: a750 683d 9e95 063c 672f 523c b6d5 11bc
000001f0: 5b92 503d 14e8 30bd d1de 663d 32ab 513a
00000200: 2824 99bd a786 90bd 63a7 793d e8e2 833d
00000210: 06f0 3c3c dbaa 6cbc 211b 283c e205 c93d
00000220: 5a54 043e 748f 5f3d 2b72 b83c 6cbb 423d
00000230: 28ca a23c 4a24 9e3d 2e7d 81bc e3ef aabc
00000240: 0d3d 9a3c 0ef3 5ebc 62c2 243d 8f3d 273d
00000250: 84af 663d 45e5 de3c e68b acbc d7b0 afbc
00000260: d116 6c39 128d 8ebb 4144 d63c 12a8 543a
00000270: e6ca c4bc 226d b23c b903 ee3a 94c2 073d
00000280: aee4 babc 6648 debb 04df 7bbb 5b18 833c
00000290: 3b4c 83bc db06 803b 241a c03c b8a9 e73c
000002a0: 3eff c3bb 2d20 c33b 388c b9bc 6232 7f3a
000002b0: cae7 efbb 4b40 0abd 7dee de3c 9c0a b9b9
000002c0: e887 863c 022e c03c d00b d73b c0cb b03b
000002d0: 8777 f03c a377 893c 844c 9dbc 74e0 dcbc
000002e0: 422b 01bc 8922 f2ba 13ed 983b 4f69 eebb
000002f0: e178 22bd 27d9 d8ba 6422 dd3c 2dbd 8d3c
00000300: 4405 e9bc 96c7 0fbd 31da 7cbb 978e ad3c
00000310: 3714 6e3c 1f74 833b 511a dabc 1bde 5fbd
00000320: 912c a5bd bfe9 93bb dc3a 1cbd f52a 523d
00000330: cebb 7c3d 3f35 96bd a013 39bd bdef 423c
00000340: 07e0 a33d 0881 0a3d ed4f 84bd 4de3 3b3c
00000350: 09bd 023d 342a f23d ee90 573d 0593 27bd
00000360: 1040 f6bc bca0 bebc 7a83 123d a278 0f3d
00000370: 2fee 35bd 1006 6fbb 40ce 58bd c538 1a3d
00000380: 3f5a a23d 0717 333c 0d8d ab3c f436 ebbc
00000390: 2488 b23c 368f c13c 070f e63c 78d2 75bc
000003a0: 95f8 38bc be3f 19bc c64e e1bc ad34 263d
000003b0: 5189 803b e0e0 71ba 67dd cdbc e8da f3bb
000003c0: 1943 84b9 3ce4 ee3c aa71 09bb 0e45 003c
000003d0: 22f8 6a3b a296 33bc aa80 3b3c 160d 07bd
000003e0: 1869 56bc dcb7 3a3d a446 b0bc 819a b1bb
000003f0: 1fd3 2fbd b3f7 cebc 9df9 34bc 6a7b 75bd
-0.02506276 -0.014482327 0.010415429 0.017912056 -0.18793269 -0.038253058 0.017458927 0.00261209
0.006132477 -0.1189627 -0.03346779 0.030513573 -0.020234443 -0.010238716 -0.011275059 -0.014872191
-0.011141147 -0.02751055 -0.026401648 0.09762541 -0.029952245 -0.032084342 -0.035233025 -0.010765273
-0.058553796 -0.029623913 -0.15134448 0.03576013 0.0865163 0.018640956 -0.019893643 -0.1314377
-0.0064455466 0.0046667503 0.0698791 -0.019407095 -0.050799645 -0.002618999 -0.0012488657 0.030019553
0.0016645798 -0.028417973 -0.001886169 -0.042374894 -0.0057913335 -0.019802887 0.049186427 -0.015786165
-0.06793715 -0.03790584 0.022607848 0.013746931 -0.035046883 -0.00854676 -0.03400977 8.806905e-06
-0.008846963 -0.00713901 0.024429284 0.025171274 0.006394183 -0.01810355 -0.02888384 0.032702144
0.020747108 -0.028762128 -0.01346936 -0.020444065 0.016511563 0.031435568 0.014892231 -0.0067384224
-0.017138664 0.056242246 0.056649793 -0.014384473 0.01308522 0.009391674 -0.006987383 0.01350822
-0.046853703 -0.013897528 0.0034570943 -0.007006008 0.014577856 -0.038119886 -0.003965169 0.024385102
-0.029087348 0.008750055 -0.030333156 0.023677548 -0.009553027 -0.005159413 -0.0027524119 0.0009386747
0.0076415194 -0.037246168 -0.002581265 0.022782061 0.035806865 0.025511278 -0.038632527 -0.005962693
0.029880246 0.04476665 0.0066276416 0.00035613502 -0.010697308 0.036288206 -0.024603685 -0.026726156
-0.03153155 0.00396651 0.043802816 0.014337508 0.0327054 -0.021996817 0.006246353 0.039914638
0.05671754 0.008214382 0.012828684 -0.00890105 0.050920825 -0.043190077 0.056364838 0.00079982274
-0.074775994 -0.07056933 0.060950648 0.06439763 0.011531835 -0.014445032 0.010260374 0.09815575
0.12922803 0.054580167 0.022515377 0.04754202 0.019871786 0.07721765 -0.01580676 -0.02086634
0.01882794 -0.013607753 0.04022444 0.04083019 0.05631973 0.027208934 -0.021062803 -0.021446628
0.00022515214 -0.004350313 0.026155593 0.00081122026 -0.02402253 0.021780554 0.0018159068 0.03314455
-0.022814121 -0.006783533 -0.0038432488 0.016002825 -0.01602756 0.0039070672 0.023449965 0.02827917
-0.005981355 0.0059547634 -0.02264987 0.00097349857 -0.0073213326 -0.03375272 0.02721333 -0.00035293854
0.016422227 0.023459438 0.0065626875 0.0053953826 0.02935387 0.01678068 -0.019201525 -0.026962496
-0.007883849 -0.0018473427 0.0046669333 -0.0072757374 -0.03966606 -0.0016544209 0.026993938 0.01730212
-0.028444894 -0.03510245 -0.00385822 0.021186156 0.014531187 0.0040116454 -0.026623877 -0.054655176
-0.08065141 -0.0045139487 -0.03814207 0.0513105 0.061702542 -0.07334375 -0.04518473 0.011897978
0.08001714 0.03381446 -0.06460557 0.011467767 0.03191856 0.11824456 0.05262845 -0.040911693
-0.030059844 -0.023270003 0.035769917 0.035027154 -0.044416603 -0.003647212 -0.05293107 0.037651796
0.07927369 0.010930783 0.020941282 -0.028712727 0.021793433 0.023627859 0.028083337 -0.015003793
-0.011289735 -0.009353576 -0.027503382 0.04057758 0.0039226194 -0.00092269294 -0.025129987 -0.007441867
-0.00025226994 0.029161565 -0.002097229 0.007828964 0.0035853465 -0.010961207 0.01144425 -0.032971464
-0.01308658 0.0455855 -0.02151806 -0.0054200296 -0.04292595 -0.025264597 -0.011045841 -0.05993215

conv2.bias f4 [32]
00000000: a490 efbb c252 90bc cb08 20bd ad60 4abc
00000010: 1e3e e1bc f9ac 43bc 5665 cfbb 1553 61bd
00000020: 3a39 02bc a69c eebb e25c c9bc 6bb1 30bc
00000030: 1b86 19bb 2ca9 b3bc 83b7 e93b f67a 993b
00000040: 0d3f 793c 5a94 993c fbad d0bb f155 303c
00000050: d5a4 acbc adea 023c 28a5 d8bc b8b7 87bc
00000060: 1546 b8bb 381a a83c c52f 743c c139 c43c
00000070: a5ee b4bc 54b0 db3c 46a8 9ebc 2af0 0b3c
-0.0073109437 -0.017617587 -0.039070886 -0.012352151 -0.02749544 -0.011943095 -0.006329219 -0.055010874
-0.007948214 -0.0072818575 -0.024580423 -0.010784487 -0.002342588 -0.021931253 0.007132472 0.0046838475
0.015212786 0.018747497 -0.0063683963 0.0107626775 -0.021074692 0.007990521 -0.02644594 -0.016567096
-0.005623589 0.020520315 0.014903967 0.02395332 -0.02208645 0.026817478 -0.019367348 0.008541146

conv3.weight f4 [1, 32, 5, 5]
00000000: 34b8 dbbc 78eb 90bb 4088 4a3c 8031 a13c
00000010: 2054 8c3c 1649 473b b574 83bd 5859 31bd
00000020: 2e5c 59bb e747 583d ff6a 00bc 86f8 c1bd
00000030: 0f1a 73bd 21ff 093c 8127 ea3d 8174 bb3c
00000040: 18a8 89bd 7aa1 81bd e83f 793d 2911 db3d
00000050: 2f13 84bd 3f6e 8dbd b2e1 64bc 9be1 3d3d
00000060: 5d79 913d d4d6 81bb d1ed 8ebc fa8d 433a
00000070: 3f7d a33c 7f86 8f3b 8ba4 81bc 354e 963c
00000080: 04de 8c3d d691 0c3d eea1 043d 63a5 48bd
00000090: fba6 2bbc 2821 a63d 22e0 813d 0d00 9e3d
000000a0: 742b d0bc 2da2 de3b ebad 093b 6cec c33c
000000b0: d9c1 2e3d ffe0 823c 0755 09bc f166 393c
000000c0: eb77 85bc dec8 b1bb 8c81 a3bc 9758 aebc
000000d0: e075 63bc 1974 ebbc 260c f8bc da0d 9abb
000000e0: 3847 3e3b 8180 a7bc fbf6 f0bc a31c fabc
000000f0: 040b 1e3c 0bf7 4d3d 4142 953d 2e74 5fbc
00000100: c3d3 b0bd 242e 843a bee7 9a3d e5cd 973d
00000110: b183 8ebc a7ac 4bbd 0428 64bd ad42 3b3d
00000120: cbb4 ba3d e5be 6e3d 5243 acbc 9b49 d43c
00000130: d898 a83c e149 4fbb f25d 0abd 2cb8 303c
00000140: 4632 9a3b 0204 ac3c 6ea0 403c 1aec e5bb
00000150: 1024 003d 4ade eb3c 21ff 9e3c f5c1 fe3c
00000160: d8d9 e73c bd29 cf3c 1437 aebb 3666 b7bc
00000170: 4f36 ccbc 564c 38bc ae85 803c 3a96 12bd
00000180: 1746 ac3c cf3d a6bc 7bf5 adbb 256b 9cbc
00000190: 1a20 6f3d 6b0a b5bd 4860 2bbe 53f0 dabd
000001a0: 35f0 9fbc ddc3 00bd 4527 b4bd 575d b0bd
000001b0: fac7 6ebd aa8c 293c 398b a9bb 6d80 b9bb
000001c0: 49ed aabb a4ad 053d 7570 363d 614c b7ba
000001d0: ae1b 293d 60fd 9a3d e622 9e3d e610 4d3d
000001e0: 1d2d 94bc 8bd2 8b3d ac6d c43d b01e 383d
000001f0: 7979 22bd 2d7f 27bd 0a81 d13c 2c15 56bc
00000200: 07d6 53bc 6098 e83a 229b 2dbd 5be1 c3ba
00000210: b1f7 283c a710 d63c 1d8d 69bc a783 9ebc
00000220: 474b 1ebc 613b 903d 9dfb 513d ac69 32bc
00000230: 2795 a9bb 9ca3 243c 5b8f 453d 5d8c edbc
00000240: 46b3 3ebd 7cf1 043d 52ca 053d 2ad6 96bb
00000250: 22d7 86bd b1e7 46bd 0bce 10bd d9a8 81bd
00000260: 31fb 72bd f04b 5a3c ff88 723c 8fce a83c
00000270: e750 3a3c 7594 18bd c053 1abc 785b 323d
00000280: 3136 673d 07dd b73b 87a1 2d3a cd43 bd3b
00000290: d4a0 093d 4a9f 0a3c b600 fd3c a3e2 e8bb
000002a0: 48f3 01bd 10df 4cbc 92fd 083c a925 a5bc
000002b0: 690b f5bc 35dd 70bb 9928 0a3d 289c d2bd
000002c0: ad10 ad3d 1422 1f3e 5b43 93bd dca8 8fbd
000002d0: b0e4 6ebd 58c8 233d 7c35 113e c8f6 c9bd
000002e0: 617f 26be e085 45bd 9ef5 9f3c 627b b33d
000002f0: c53b 803c 8da8 eebd 33e8 08bd 4339 a93c
00000300: 5cb8 d7ba 4450 b63d d364 a73c bd21 d6bb
00000310: e795 643d 89cf 51bd 63e8 9838 adef 7e3d
00000320: 733f 193d 4a66 78bc 9ad5 873c 3356 f43b
00000330: 57e2 a4bb a769 953c f408 88bc 339b a93a
00000340: d2b5 c2bc 683a 1abd 78c2 05bc fd3c 0b3c
00000350: 60d8 df3b cd95 75b9 3784 c0bc d198 9e3c
00000360: 03c9 0d3b 4ca2 143d be69 c4bc 467a 023d
00000370: fd83 19bc b0b7 7f3b a22f 223d 17a7 8b3c
00000380: 16dd 393d 6448 803c df25 c73c 5592 bb3a
00000390: 45f9 333c 332e 2d3c d6c6 0c3d 33fe ca3c
000003a0: 79fc d53c 8680 debb 4a1f 65bb bbdc 793c
000003b0: 85b0 a73c a7bb e6bc 7639 153d e986 61bc
000003c0: 9493 16bc baca abbc 9d9d 5eba 9165 a83c
000003d0: a1c1 de3c 4a36 70bb 5604 54bc 267b f63b
000003e0: 0d90 213d 92c3 5bbc babb c4bc fedf fdb9
000003f0: 47c3 183d 351d d23c 67b0 a93c a9e1 5b3c
-0.026821233 -0.0044226013 0.012361586 0.019676924 0.017129958 0.0030408553 -0.064187445 -0.043298095
-0.0033166516 0.052802946 -0.00783801 -0.0947123 -0.059351023 0.008422644 0.11433316 0.022882702
-0.067215145 -0.06329627 0.06085196 0.106966324 -0.064489715 -0.069057934 -0.013969826 0.046357732
0.07103226 -0.003962377 -0.017447384 0.0007459816 0.019957183 0.004380047 -0.01582553 0.018347839
0.068782836 0.034318767 0.03238099 -0.04898585 -0.010476823 0.08111793 0.06341578 0.077148534
-0.025411345 0.006794235 0.0021008204 0.023916446 0.042665336 0.015976427 -0.0083820885 0.011316047
-0.016292533 -0.0054255566 -0.019959234 -0.021282477 -0.013883084 -0.028741883 -0.03027923 -0.0047013583
0.002903415 -0.020447018 -0.029414644 -0.030531233 0.009646181 0.050284427 0.072880276 -0.013638539
-0.0863414 0.0010084552 0.075637326 0.07412318 -0.01739678 -0.0497252 -0.055702224 0.045717884
0.09116515 0.05828752 -0.021028195 0.025914004 0.020580694 -0.0031629729 -0.033781 0.0107860975
0.0047057 0.020998005 0.011756999 -0.007016671 0.031284392 0.02879252 0.019408764 0.031098345
0.028302118 0.025288457 -0.0053166244 -0.022387605 -0.02492824 -0.011248669 0.015688743 -0.0357878
0.021029515 -0.020293145 -0.0053088046 -0.01909406 0.058380224 -0.08839878 -0.16735947 -0.106903695
-0.01952372 -0.03143679 -0.087965526 -0.08611553 -0.05829618 0.010348478 -0.0051740673 -0.0056610615
-0.005216275 0.0326363 0.04454084 -0.0013984555 0.041286163 0.07567859 0.077215 0.050064944
-0.018087918 0.06827267 0.09591231 0.04495114 -0.039666627 -0.04089277 0.025574226 -0.013066571
-0.012929446 0.0017745607 -0.042384274 -0.001494448 0.0103129605 0.026130987 -0.014254835 -0.019349886
-0.009661502 0.07042576 0.051265348 -0.010889452 -0.005175251 0.010048773 0.048232418 -0.028997594
-0.046557687 0.03245686 0.03266365 -0.004603167 -0.06584002 -0.048560802 -0.035352748 -0.06331033
-0.059321586 0.013323769 0.01480317 0.020606307 0.011371828 -0.037250955 -0.009419382 0.043544263
0.056448165 0.0056110653 0.0006623496 0.0057759047 0.033600643 0.008460829 0.030884128 -0.0071070953
-0.03172615 -0.012504354 0.008361237 -0.02015956 -0.029912667 -0.0036752943 0.033730123 -0.10283691
0.08450446 0.15540344 -0.071905814 -0.07014629 -0.058323562 0.039985985 0.14180559 -0.09861523
-0.16259529 -0.048223376 0.0195263 0.08763768 0.0156535 -0.11653242 -0.033424567 0.020657187
-0.0016458142 0.08902028 0.020433819 -0.0065347836 0.05580702 -0.05122331 7.29121e-05 0.06224029
0.037414026 -0.015161106 0.016581345 0.007456565 -0.0050318646 0.018238856 -0.016605832 0.001293993
-0.02376834 -0.037653357 -0.008164041 0.008498427 0.006831214 -0.00023420826 -0.023500545 0.019359978
0.0021634705 0.03628759 -0.023976203 0.03185489 -0.009369847 0.0039019398 0.039596207 0.017047448
0.04537686 0.015659519 0.02431005 0.0014310578 0.010984723 0.010570097 0.034369312 0.024779415
0.026121365 -0.0067902235 -0.0034961277 0.01525038 0.020469913 -0.028165651 0.036431752 -0.013765075
-0.009190459 -0.020970691 -0.0008492114 0.020556243 0.027191939 -0.0036653453 -0.012940487 0.0075220047
0.03944402 -0.013413327 -0.024015296 -0.00048422808 0.037295606 0.025648693 0.020713998 0.013420501
